models/final_mlp_model.pth (torch, 31511 bytes, 6 tensors)

fc1.weight f4 [70, 9]
000000 59 fc 24 3e 5a 0f 54 bd aa 52 49 bd 40 bd 57 3d
       0.16111888 -0.051772453 -0.0491511 0.052670717
000010 fe ff e9 bd aa 07 ec bc f8 2a 46 bd 3a 48 46 3c
       -0.1142578 -0.028812248 -0.048380822 0.012102181
000020 6c 5f 6c bc 44 a4 19 af a5 82 1e af a8 32 1c af
       -0.014427047 -1.3973628e-10 -1.441643e-10 -1.4206114e-10
000030 49 af 23 ae 48 f0 bd ae 3a 18 b2 ae 30 b8 1a af
       -3.7217594e-11 -8.6374075e-11 -8.0988063e-11 -1.4071655e-10
000040 3c cb 16 af 9c 70 66 a8 ca aa da ae 8d 50 07 af
       -1.3714624e-10 -1.2791983e-14 -9.9438305e-11 -1.2306796e-10
000050 00 85 6c ad 1b dc 76 2d ff ff fe ad e4 5c 3f ad
       -1.3444579e-11 1.4032354e-11 -2.8990142e-11 -1.0877719e-11
000060 9a 90 42 ae e0 e9 47 ae 00 e5 f9 2c 05 6e c0 bc
       -4.4238925e-11 -4.5455084e-11 7.1024298e-12 -0.023489961
000070 7b 2f c2 bd d1 71 ae 3d ae 2f ed 3e a5 54 c0 bd
       -0.094817124 0.085178025 0.4632544 -0.09391145
000080 eb 3b e8 3e b6 a0 90 be 6f 74 6f 3d 1b 53 b4 3e
       0.45358214 -0.28247613 0.05846065 0.35219654
000090 5c ae ed 3c ba e4 5d bc 7b 64 4b bd 4e 51 81 3a
       0.029013805 -0.013543302 -0.049656373 0.000986615
0000a0 db e7 2d bd bc 26 06 bd 4b b0 48 bd c5 99 96 3c
       -0.042457443 -0.032751784 -0.04899625 0.01838387
0000b0 38 3c 09 bc 6e db 93 3d 8d b5 29 3d bc 8d 0f bf
       -0.008376174 0.07219587 0.041432906 -0.56075644
0000c0 40 94 73 3e ad 09 0d 3d 19 c0 27 be 38 14 dc 3e
       0.23787022 0.034433056 -0.16381873 0.42984176
0000d0 3e cd 52 bf 90 28 1b 3d 10 bc 26 3d 85 20 88 3e
       -0.82344425 0.03788048 0.040706694 0.2658731
0000e0 71 09 34 3e c0 a4 db 3d 28 7b d8 be c6 be 41 3c
       0.17581727 0.10724783 -0.4228146 0.011825269
0000f0 e6 89 97 be a1 7a fc be e2 5f b0 3b f3 06 7e bd
       -0.29597396 -0.49312308 0.005382524 -0.062018346
000100 20 f1 fa 3e 31 aa 80 be a8 38 c2 3e 3d 4e e2 be
       0.4901209 -0.25129846 0.3793385 -0.44200316
000110 b9 2f 0e bf f3 92 fb 3c 6f a5 c2 3e d8 6a b9 be
       -0.5554157 0.03070972 0.3801684 -0.36214328
000120 c8 17 09 3d 91 e3 d0 bd b4 38 b9 3d b0 45 8d be
       0.033469945 -0.10199655 0.090440184 -0.2759223
000130 ec f3 51 bd a6 48 99 3d ff 1d 1b 3c 8b 71 4f 3d
       -0.051258013 0.0748456 0.009467601 0.050645392
000140 56 2f 0a 3d 82 14 27 ac b5 a1 4b 2a 68 0a ac aa
       0.03373655 -2.3743511e-12 1.8086125e-13 -3.0560558e-13
000150 ad 5a 05 aa e6 db ba 2a 29 f8 98 2a 2f 3c 39 2b
       -1.1844232e-13 3.3192822e-13 2.717282e-13 6.5808725e-13
000160 d3 5c 16 29 5c 02 9a 1f 7e 10 55 bd 15 ee e1 bd
       3.3387203e-14 6.522544e-20 -0.05201768 -0.11031739
000170 22 9a dc be cb fc 13 bb 47 de 76 3e 38 a2 43 bd
       -0.43086344 -0.0022581096 0.2410823 -0.047762126
000180 57 62 27 3f c1 98 e9 3e 37 fc 97 bd 6c 2c 05 ba
       0.6538443 0.45624354 -0.07421153 -0.0005080167
000190 f2 79 4a 3a 22 20 5b 3a c2 92 98 b9 e3 eb 99 38
       0.000772386 0.0008358975 -0.00029101042 7.339546e-05
0001a0 5b b1 cc 39 e2 37 54 b9 6e 6d 57 3a 5f f9 d9 b6
       0.00039042052 -0.00020238713 0.00082179054 -6.4961346e-06
0001b0 58 21 58 b5 fb 0e 3d 02 db e9 2c 82 69 c0 3a 02
       -8.051479e-07 1.3889826e-37 -1.2703677e-37 1.3720341e-37
0001c0 b1 07 91 00 94 22 57 81 db d2 43 81 4d ff 60 82
       1.3318906e-38 -3.9514072e-38 -3.5967125e-38 -1.6530189e-37
0001d0 fb 1d 1d 80 2b f8 06 bc dd 93 c8 3b 56 6e 9c 3b
       -2.673984e-39 -0.008237879 0.0061211423 0.0047738953
0001e0 1d 0f d2 3b 68 92 ee ba 14 0c 52 3a df 3e a4 ba
       0.006410493 -0.0018201591 0.0008012664 -0.0012530944
0001f0 15 b3 b1 3b da 72 ae b7 45 e7 78 9d f6 21 85 9d
       0.0054229596 -2.0795898e-05 -3.294209e-21 -3.523992e-21
000200 dc 8a 8e 9d 09 17 54 9e a0 98 7e 9d b0 80 5b 1c
       -3.7730664e-21 -1.122795e-20 -3.3695525e-21 7.2627346e-22
000210 3c b7 2f 1c 06 bd 15 9d a6 38 d6 9a c4 c6 d7 3d
       5.813947e-22 -1.9817709e-21 -8.8599846e-23 0.105359584
000220 6d 9c 0b be 19 ea c7 be 1d bf 63 be 2d 35 10 bd
       -0.1363389 -0.3904579 -0.22240873 -0.035206962
000230 da 8e c9 3d 3d 66 0f bf 65 aa ea bb 7a f9 84 bc
       0.098417 -0.5601538 -0.007161426 -0.016232241
000240 14 ef b8 a5 50 ad 00 00 ba 5f 00 00 52 5d 00 80
       -3.2080918e-16 6.2173e-41 3.434e-41 -3.3477e-41
000250 60 95 00 00 43 5c 00 80 e7 65 00 00 d3 97 00 80
       5.3586e-41 -3.3097e-41 3.6556e-41 -5.4464e-41
000260 f5 73 09 80 2b 9d 93 bc 67 63 88 3b 6e 1e 88 3b
       -8.68117e-40 -0.01801928 0.0041622403 0.004154018
000270 cb b5 bf 3b 99 b4 3c bb 70 1e af b9 98 69 40 bb
       0.005850529 -0.0028794168 -0.0003340128 -0.0029359814
000280 c6 01 91 3b 38 ba e1 38 52 ae 99 3d 58 91 d4 be
       0.0044252602 0.00010763522 0.07503952 -0.41517138
000290 89 e6 89 3e 97 25 57 be 4f 2c aa 3e c6 ec c3 3d
       0.26933697 -0.21010433 0.3323693 0.09566645
0002a0 15 23 94 3e 79 33 14 bf 2f 97 1e be 75 eb 5a 3d
       0.28933015 -0.5789104 -0.1548736 0.053447206
0002b0 72 19 e4 3d 24 b3 d4 3d 7d 7e 40 bf 50 67 85 be
       0.11137666 0.10385731 -0.75193006 -0.26055384
0002c0 36 4c ac 3d eb d1 d6 3d ec b3 3f 3d 2c be 0c 3e
       0.084129736 0.104892574 0.046802446 0.1374442
0002d0 bf eb ab bd ae 7c 65 3f 41 70 8d 3e 8c 05 cf 3d
       -0.083945744 0.8964337 0.27624705 0.1010848
0002e0 ef 08 05 3f 0e 01 d5 3e 47 3b 79 be c1 2d d6 be
       0.51966757 0.41602367 -0.24339019 -0.41831782
0002f0 c5 4e 42 3e 7a 99 bd bc 8b b2 00 38 38 7b 3b 37
       0.1897536 -0.023144472 3.068386e-05 1.1174758e-05
000300 c8 27 43 38 42 3f 02 1b 1d a0 0e 98 6e 5e 24 b3
       4.6528672e-05 1.0773788e-22 -1.8433906e-24 -3.827011e-08
000310 7b 61 bb 37 3e 2d 00 80 6e 5a ba 3d 90 a5 f8 b8
       2.233753e-05 -1.623e-41 0.09099279 -0.000118564
000320 03 a0 ca be eb 9f 86 bd 52 e3 ed 3d e4 11 af be
       -0.39575204 -0.06573471 0.116156235 -0.34193337
000330 03 ca e0 3c 50 e1 3b be d7 1f f5 ba 03 a1 b1 b3
       0.027440077 -0.18347669 -0.0018701506 -8.271493e-08
000340 f3 45 a4 b1 e8 84 a7 2f 64 a3 b4 2f de 24 8b b1
       -4.7809805e-09 3.0471559e-10 3.2857905e-10 -4.0496237e-09
000350 ed 96 72 31 7a 17 0f b2 83 a7 7f b1 66 14 6c 2d
       3.5301426e-09 -8.3290335e-09 -3.7202603e-09 1.3419576e-11
000360 e6 f2 81 3d 26 c1 9e 3e 72 d7 ba 3d 3f 8a c6 be
       0.06345157 0.31006736 0.09123124 -0.38777348
000370 27 a3 28 bf 5e 16 6c 3f 53 22 34 bf ea 8b cc be
       -0.6587395 0.9222163 -0.70364875 -0.39950496
000380 c4 bf 06 3f e5 f7 52 3d 71 54 e5 be 5d ce 72 3b
       0.5263636 0.051505942 -0.44790986 0.0037049272
000390 bd 29 87 3e 68 48 f3 3e a4 9f 78 bf 0f 10 0e bf
       0.2639903 0.4751618 -0.9711859 -0.55493253
0003a0 1e a7 5e 3d 79 06 79 be 36 42 e7 3d c7 85 c7 be
       0.054358594 -0.24318875 0.112919256 -0.38969252
0003b0 6f 5d 25 be a4 6a b6 be 33 55 d3 bd c4 03 d2 be
       -0.16148923 -0.35628235 -0.10318985 -0.41018498
0003c0 c8 52 5c 3e 36 52 c6 39 75 b5 9b 3d 72 de 23 3a
       0.21515954 0.00037826755 0.076029696 0.00062511035
0003d0 27 96 5a 3a 4f 99 51 3a 8d f1 72 3a 46 61 24 3a
       0.00083384145 0.0007995562 0.0009267561 0.00062705984
0003e0 72 7b 39 3a fb 93 c9 39 e0 dc 38 3a a0 d4 ab b6
       0.0007075585 0.00038447962 0.0007051956 -5.12095e-06
0003f0 28 80 2b bc 18 c4 8e 3e f6 4b c2 3e e3 c6 cb be
       -0.010467567 0.27883983 0.3794858 -0.39800176

fc1.bias f4 [70]
000000 31 ba 9f bd 07 a1 c6 ae ee 24 4b 2e 9f 51 ff be
       -0.07799185 -9.032602e-11 4.6189656e-11 -0.4986696
000010 0b be 4c bd 9f 31 20 bd 37 94 a6 be d4 1c 9f 3e
       -0.049985927 -0.039109822 -0.32534954 0.31076682
000020 b1 c4 71 bd 13 bf 84 2a 66 e9 db bc 7e 6e 64 b9
       -0.05902547 2.3580495e-13 -0.026844691 -0.00021784936
000030 0c db 2a 81 bc 3a a0 3a 34 c1 22 1b 44 61 0c be
       -3.1381227e-38 0.0012224535 1.3462753e-22 -0.13708979
000040 c8 04 00 80 a0 6b ef 38 51 27 23 3d b3 18 d6 bd
       -1.715e-42 0.00011416455 0.039832417 -0.1045393
000050 4a a7 05 bd 06 41 95 24 86 ea 76 3a c6 20 f8 30
       -0.032630242 6.4728603e-17 0.0009419102 1.805369e-09
000060 95 38 02 3b 20 43 13 bd 7e 6d 1d 3c 6b 58 04 3a
       0.0019870151 -0.035952687 0.0096086245 0.00050485757
000070 3f 73 13 bc c4 f4 42 3c 02 17 d5 be b9 95 41 18
       -0.008999645 0.011899177 -0.41619116 2.5020256e-24
000080 bd ac ce bd b0 c2 91 be 36 ea 6d 36 51 63 91 bc
       -0.10091541 -0.28468847 3.545208e-06 -0.017747553
000090 29 d8 ba 38 24 38 28 39 f3 06 00 00 2c b4 c5 bd
       8.909434e-05 0.00016042643 2.493e-42 -0.09653506
0000a0 ba 6a 5c ae 1e 38 f6 3d 58 55 2f bd bb b7 11 3e
       -5.0117e-11 0.12022422 -0.042806 0.14230244
0000b0 bc c6 f0 b4 42 cf 80 8e 6e a4 ac 3a bd a4 35 3a
       -4.4848082e-07 -3.175402e-30 0.0013171562 0.000692915
0000c0 e1 31 5f 95 17 c0 0f bd 63 ca a3 34 47 8c cb bc
       -4.507384e-26 -0.0350953 3.0508372e-07 -0.024847163
0000d0 25 61 e6 bc b9 8d 00 80 7d d3 8d 3e b2 43 c2 b2
       -0.028122494 -5.084e-41 0.27700415 -2.2615357e-08
0000e0 79 6f 7f be d1 ec 67 2e 97 6b 11 3e 68 9a ef 13
       -0.24944867 5.2733654e-11 0.14201199 6.048434e-27
0000f0 76 2b f0 ab 8a b9 00 80 df 9b 8b bd fb ee 95 bd
       -1.7065088e-12 -6.6559e-41 -0.068168394 -0.073209725
000100 d4 de 93 be 68 b1 24 3e 0a 38 90 b6 2b 61 70 bd
       -0.28880942 0.160833 -4.2980582e-06 -0.058686417
000110 df 3f 6c 3e c4 92 00 80
       0.2307124 -5.265e-41

fc2.weight f4 [90, 70]
000000 ed be dd 3a e8 eb 16 9a 39 0a 54 2d 16 78 89 ba
       0.0016917862 -3.1209837e-23 1.2053075e-11 -0.0010488059
000010 e9 80 c2 39 7a 4a 3b 3c bd 9e 23 bb 39 b2 06 bc
       0.0003709861 0.011431331 -0.0024966442 -0.0082212025
000020 91 36 31 ba 0b 9c f2 a0 b0 16 09 bc 3c b7 45 b7
       -0.0006760145 -4.1099655e-19 -0.0083672255 -1.1784778e-05
000030 04 25 dd 80 4e 8f 8a 3a e8 d0 0e 9a 8d 84 90 bb
       -2.0308923e-38 0.0010571273 -2.9533665e-23 -0.0044103325
000040 a4 46 00 80 86 d2 ed 3a f3 21 16 3c 2d ed dc 3b
       -2.5341e-41 0.0018144406 0.009163368 0.0067421407
000050 cc 2c 67 bc 8b 48 00 80 81 a9 9a bb e5 fd 59 19
       -0.0141098015 -2.6024e-41 -0.0047199135 1.1269911e-23
000060 f4 73 6e bb ef cb 5d 3c 60 8d 56 bb 2c a5 25 b7
       -0.0036385031 0.013537391 -0.0032738075 -9.8732235e-06
000070 f8 7a 88 3b 28 a7 00 3a d0 ea 70 3b 2d a4 bd 16
       0.0041650496 0.0004907721 0.0036761053 3.0638206e-25
000080 fc e7 81 3a 0d 62 b5 39 72 11 23 b5 df 39 c0 38
       0.0009911056 0.00034596064 -6.074762e-07 9.166053e-05
000090 70 e5 09 33 ec eb 3c 36 02 61 00 00 fb e5 85 3a
       3.210647e-08 2.8151508e-06 3.48e-41 0.0010215634
0000a0 c6 bd 11 ac d5 73 7c 3b 19 f9 1f 3a e8 66 12 3a
       -2.0711085e-12 0.003852119 0.0006102487 0.0005584792
0000b0 36 7f ae b1 e8 7e 5a 8c 72 3d 24 3c d3 85 05 3c
       -5.0785287e-09 -1.6832299e-31 0.010024415 0.008149582
0000c0 d3 4a d4 93 76 d1 fe 39 1c fb c6 b2 69 39 b6 3b
       -5.3590106e-27 0.00048602716 -2.3164425e-08 0.005561043
0000d0 46 83 f1 39 df c2 05 80 15 af 80 ba 5a c5 06 2f
       0.00046064908 -5.29084e-40 -0.0009817804 1.2257342e-10
0000e0 92 c7 2f bb 98 ac 48 ab 8e c7 25 bb bd 46 54 93
       -0.0026821834 -7.1293796e-13 -0.0025295946 -2.6793039e-27
0000f0 04 28 15 1b 4b 8a 00 80 8a 92 28 3a fa 0b e9 3b
       1.2337921e-22 -4.961e-41 0.00064305274 0.0071120234
000100 10 cd 1d 3c 75 76 26 3c 98 36 80 33 b7 9d 45 3b
       0.00963141 0.010160078 5.970395e-08 0.003015382
000110 60 ec 54 bb 03 d1 02 00 9b 64 de b2 fa 35 45 0c
       -0.0032489523 2.5865e-40 -2.5889952e-08 1.5192571e-31
000120 97 51 12 1f d2 79 c6 b1 f0 3e ab b1 54 12 50 32
       3.0984192e-20 -5.776408e-09 -4.98391e-09 1.2111361e-08
000130 b4 4f 45 b1 be f5 68 32 fa a1 e9 b1 72 10 75 94
       -2.871258e-09 1.3560053e-08 -6.799607e-09 -1.2372582e-26
000140 90 e7 4f b1 a5 a1 89 29 73 bc 0a 80 5c 45 3f ae
       -3.0254093e-09 6.112063e-14 -9.85958e-40 -4.3489976e-11
000150 c6 e9 a5 0e 60 6c 00 2f 5b 04 07 80 de e0 cf 29
       4.0900756e-30 1.1680035e-10 -6.44411e-40 9.231655e-14
000160 18 55 b2 32 e5 18 d4 32 c0 98 92 32 67 95 00 80
       2.0760623e-08 2.4691369e-08 1.70661e-08 -5.3595e-41
000170 c5 4c fc 31 78 d7 01 00 c7 71 e9 31 b1 ee d5 b0
       7.342893e-09 1.69131e-40 6.7941275e-09 -1.556563e-09
000180 75 38 31 b2 c7 8f e8 ab 50 06 9d 32 cc d7 43 29
       -1.0315593e-08 -1.6524498e-12 1.8280076e-08 4.3485872e-14
000190 04 99 65 30 16 98 79 88 f6 c1 63 b2 ec cc c6 30
       8.3527163e-10 -7.510949e-34 -1.3257241e-08 1.4464638e-09
0001a0 92 3a 06 a2 a0 26 90 b0 2a b9 2a 2a 4d 16 40 29
       -1.8191393e-18 -1.0488357e-09 1.5163275e-13 4.2651907e-14
0001b0 ae ae 00 00 07 16 16 b2 ce b9 e1 9f 5e fe dd 32
       6.2663e-41 -8.736158e-09 -9.5598595e-20 2.5843459e-08
0001c0 b3 77 8f b0 3c 60 96 31 07 37 72 a8 f4 69 e4 06
       -1.043864e-09 4.376515e-09 -1.3445631e-14 8.591975e-35
0001d0 a9 75 b7 b1 de 70 a6 b1 b1 ef b8 0a 92 f3 8c b0
       -5.3393774e-09 -4.8440674e-09 1.7808717e-32 -1.0255568e-09
0001e0 4d b0 87 27 ae 40 4a b2 da 2c c8 af 33 9d 04 80
       3.7661173e-15 -1.1772654e-08 -3.6411657e-10 -4.23734e-40
0001f0 39 1e d4 b1 7c f9 02 b4 f8 0b 58 b1 42 51 a3 17
       -6.173448e-09 -1.2197955e-07 -3.143894e-09 1.055414e-24
000200 16 b4 7b 32 00 e0 01 88 4a 45 d3 8f 34 ca 02 00
       1.465107e-08 -3.9082836e-34 -2.0832896e-29 2.56208e-40
000210 8c a6 9b b2 e0 a2 eb b0 cf 54 da 31 1e e2 9c 32
       -1.8120112e-08 -1.7144792e-09 6.3542767e-09 1.8263616e-08
000220 ae d1 f6 a3 4a 90 92 b2 48 93 f0 b0 7f 3f 00 80
       -2.6760176e-17 -1.7062252e-08 -1.7504158e-09 -2.2778e-41
000230 7a 05 0b b7 c0 b7 09 8f 12 22 0e a4 b3 8c 4f b5
       -8.286321e-06 -6.7900105e-30 -3.08202e-17 -7.7318253e-07
000240 69 f1 08 b5 90 09 85 b7 a1 d6 60 b5 ba 0e f1 35
       -5.1015246e-07 -1.5859288e-05 -8.375883e-07 1.7960185e-06
000250 de 90 63 b5 0a f3 f0 95 2a 29 de b2 75 68 b1 30
       -8.47749e-07 -9.7318676e-26 -2.586292e-08 1.2908133e-09
000260 b5 47 01 80 be 1d 91 30 a8 6d 2d 14 c4 b1 98 b4
       -1.17559e-40 1.0558592e-09 8.755894e-27 -2.8441548e-07
000270 a3 46 00 00 25 66 26 2e 1f ea 4a b6 ba 45 9b b6
       2.534e-41 3.7834753e-11 -3.0236622e-06 -4.627477e-06
000280 66 2f d5 b5 55 5a 0d 80 70 1e 87 b3 74 4b 06 00
       -1.5883531e-06 -1.226266e-39 -6.291964e-08 5.7808e-40
000290 22 aa e9 b4 ee bc 29 b4 aa c4 7f b4 0e 45 20 2d
       -4.352342e-07 -1.5808084e-07 -2.3820272e-07 9.11028e-12
0002a0 84 32 f9 35 d0 89 74 32 7a be 7b b3 18 5d 1a 0c
       1.8566648e-06 1.4234004e-08 -5.861373e-08 1.1891743e-31
0002b0 f2 f9 78 b6 18 5d 32 34 23 ed a8 ab 74 60 0a b4
       -3.7100367e-06 1.6611409e-07 -1.2002937e-12 -1.2887341e-07
0002c0 c6 06 9b a8 12 c8 54 b8 3e 43 0c 80 c5 c1 1c b6
       -1.7211394e-14 -5.073107e-05 -1.126148e-39 -2.33586e-06
0002d0 b9 3e 72 24 a9 53 2b b6 6a ea 25 b5 94 bd 70 b5
       5.2528513e-17 -2.5529682e-06 -6.180841e-07 -8.968284e-07
0002e0 32 37 24 2b 00 c1 00 80 db b1 c9 b3 1f 1f b4 33
       5.8341103e-13 -6.9235e-41 -9.3921436e-08 8.387564e-08
0002f0 3b 88 01 80 df fd de b4 3d b8 09 1b fd 3d 59 37
       -1.40706e-40 -4.1535438e-07 1.1391905e-22 1.2948641e-05
000300 c0 53 ca b5 94 9a 53 39 e8 f9 f8 b4 d4 8b 03 26
       -1.5074547e-06 0.00020180113 -4.637543e-07 4.563926e-16
000310 84 42 c7 b5 a4 df 09 a5 65 79 a0 b6 e4 a5 0c 00
       -1.4846014e-06 -1.1958628e-16 -4.7825038e-06 1.161536e-39
000320 03 f5 18 14 b4 8e 03 00 c2 d9 90 b6 29 43 cc b4
       7.722359e-27 3.26699e-40 -4.3168848e-06 -3.8046826e-07
000330 05 68 3e 35 c6 22 a1 b3 50 16 45 2a d0 53 33 37
       7.0931884e-07 -7.503472e-08 1.7504856e-13 1.06887455e-05
000340 b4 4e 66 b7 ff ed 06 00 c7 ed 01 b1 1b 55 01 80
       -1.3727393e-05 6.3639e-40 -1.8907131e-09 -1.22366e-40
000350 f5 6c ca 9f 1b cc a7 b1 cf ca 14 30 af 13 aa b1
       -8.573058e-20 -4.883544e-09 5.4130295e-10 -4.949889e-09
000360 4b 15 74 b0 e6 76 87 b0 d9 c0 7d af 73 fd 29 16
       -8.879694e-10 -9.856336e-10 -2.3078729e-10 1.3731686e-25
000370 5c 77 06 2f d6 ef e3 ac 14 4c 01 80 23 71 17 b6
       1.2229634e-10 -6.478355e-12 -1.19127e-40 -2.2566608e-06
000380 b3 92 e9 0f bb f6 20 b0 d3 e4 0c 80 07 e2 9f 2a
       2.303208e-29 -5.8558286e-10 -1.184113e-39 2.8400912e-13
000390 bc b3 55 30 5a 7d cc af 29 45 48 30 66 64 00 00
       7.7744367e-10 -3.7196451e-10 7.285786e-10 3.6016e-41
0003a0 b4 13 ce b0 1a 8f 01 8c c2 c8 4f 30 e0 41 be 2d
       -1.4994073e-09 -9.980862e-32 7.5591455e-10 2.1629754e-11
0003b0 52 d8 fb b0 07 a6 73 a9 19 66 36 b0 83 e2 36 ad
       -1.8324136e-09 -5.4100845e-14 -6.6356304e-10 -1.0395798e-11
0003c0 72 66 b4 af 9d 9c d5 0b 2d 63 3f b0 9a a2 0a 31
       -3.28146e-10 8.228026e-32 -6.962633e-10 2.0174071e-09
0003d0 cc a4 0e a6 ed 24 9d ae 66 10 02 a9 fe e1 ec 29
       -4.948949e-16 -7.146093e-11 -2.8880022e-14 1.0519709e-13
0003e0 e4 68 03 80 24 62 fd af d6 f1 a0 a1 95 2b 62 af
       -3.13134e-40 -4.6090165e-10 -1.0906035e-18 -2.0570064e-10
0003f0 94 82 03 af fb e1 f3 af fa 43 a7 a6 dd ab 04 00
       -1.1960771e-10 -4.436201e-10 -1.1606378e-15 4.28995e-40

fc2.bias f4 [90]
000000 fc ee 7c bb 2f 17 ae 32 29 84 d7 b5 d0 85 86 af
       -0.0038594594 2.0266809e-08 -1.6057212e-06 -2.4469538e-10
000010 c6 2e c5 38 17 3a 20 be 65 d9 31 bc da 60 17 bd
       9.402404e-05 -0.1564716 -0.010855054 -0.0369576
000020 60 5a 9e b3 80 9d ba ac 6d 7e 8f bc de d8 d0 bc
       -7.3738875e-08 -5.303924e-12 -0.01751634 -0.025494035
000030 7d d9 a4 3b da 85 10 b7 30 81 b3 3a e9 2f 8d 3d
       0.0050308094 -8.614234e-06 0.0013695117 0.06893904
000040 85 0a 3c bc 98 d8 60 b7 54 5a a6 bd 88 10 80 bc
       -0.011477117 -1.340187e-05 -0.081226975 -0.015632883
000050 40 c5 dc bc 42 8d 59 33 ec ab 9f b3 08 c5 e4 b2
       -0.026949525 5.0652723e-08 -7.435287e-08 -2.6632293e-08
000060 39 41 88 b4 13 8d 7e b5 ef e5 ff 3c fc 60 c2 27
       -2.537943e-07 -9.4827664e-07 0.03123757 5.3950967e-15
000070 ec e4 ae 31 98 d3 a2 a7 29 d1 04 3d 95 c2 cd 3d
       5.090092e-09 -4.5193443e-15 0.032426033 0.10046879
000080 da 6b 83 bb f0 d6 3d b3 a8 54 a6 3a f9 1f e4 b6
       -0.0040106596 -4.4200476e-08 0.0012690024 -6.7986516e-06
000090 95 0d ae 3d 14 3d 0d b5 dc eb 30 ae 25 a6 b3 bc
       0.08498684 -5.2615474e-07 -4.0227252e-11 -0.02192981
0000a0 e4 8a 05 b7 dd e2 8a bd 24 61 00 30 10 97 f4 3c
       -7.959756e-06 -0.06781552 4.6704174e-10 0.029857188
0000b0 05 ba 6f 2f be fd 2b 27 d5 39 1d bd 28 38 a4 a9
       2.1803011e-10 2.3868571e-15 -0.03838523 -7.2928046e-14
0000c0 a1 4e ab ba 5a 6b fb b1 df dd 82 39 d3 48 2e bc
       -0.0013069698 -7.317266e-09 0.0002496084 -0.01063748
0000d0 33 8e b9 3d 42 fb 9f 30 e3 93 35 be 50 81 2f bb
       0.090603255 1.1640184e-09 -0.17732196 -0.0026779957
0000e0 e8 eb a9 b5 a4 fb 54 34 b0 61 00 80 3f f0 2b bd
       -1.2660139e-06 1.9835585e-07 -3.5044e-41 -0.041977163
0000f0 fe c7 97 a5 9a 81 39 38 de 6d 5f bd 9f 74 0a bc
       -2.6329844e-16 4.4228138e-05 -0.054548137 -0.008450656
000100 0b 53 e5 bc 01 e4 11 ba a8 ac e0 bc 90 64 de bd
       -0.0279937 -0.0005565286 -0.027426079 -0.108590245
000110 85 45 a2 b7 aa e9 9f b9 54 2b 9c bc 08 f9 e5 bc
       -1.9344277e-05 -0.00030500937 -0.01906363 -0.028072849
000120 c2 a8 a6 3d 56 39 c0 35 da 8b bd b3 88 b2 a3 bb
       0.08137657 1.4321802e-06 -8.826437e-08 -0.004995648
000130 fe 41 df 24 17 5f f2 2d e7 74 2f aa 8d 77 15 bd
       9.682263e-17 2.7554443e-11 -1.5583681e-13 -0.036490966
000140 37 c4 bd 3d b2 bf 40 bd b7 20 e1 af 06 1b 4b 25
       0.09265941 -0.047057815 -4.0950507e-10 1.7616599e-16
000150 4d 8e b4 3c 06 0f 94 37 83 e8 58 91 50 7e 48 b1
       0.02204051 1.764997e-05 -1.7111044e-28 -2.917563e-09
000160 c5 f7 5f ba 69 2e ce 3d
       -0.00085436954 0.10067446

fc3.weight f4 [3, 90]
000000 66 ad dd 3c 78 70 1a 31 95 8e 80 36 54 f4 bf 30
       0.027060222 2.247388e-09 3.831296e-06 1.3966521e-09
000010 24 9d 75 b7 57 d0 71 3f 8e 9a f2 3d 2a 41 f6 3e
       -1.4639725e-05 0.94458526 0.11845885 0.4809659
000020 4e 9f 81 b5 ca 22 c4 33 1d 88 51 3e 8d 26 18 3f
       -9.657613e-07 9.133289e-08 0.2046208 0.59433824
000030 6d 70 03 bd ce 16 04 36 8e 03 46 ba 63 7d 0a bf
       -0.03208964 1.9682807e-06 -0.000755363 -0.54097575
000040 b2 3b 99 3d be f9 ab 36 8a a9 f5 3e 28 86 4c 3e
       0.07482089 5.125271e-06 0.4798091 0.19973052
000050 a7 cd 55 3e dc 1e a2 33 50 37 e3 34 59 62 2e 33
       0.20879231 7.549326e-08 4.232229e-07 4.060198e-08
000060 ea 4c 45 b4 86 08 40 35 db b5 47 be 1d 2e 9b 33
       -1.8375036e-07 7.1537977e-07 -0.19502966 7.226138e-08
000070 35 22 c5 b1 e6 b6 ee 25 bf 3a 41 be 7b 67 44 bf
       -5.7373435e-09 4.1410356e-16 -0.18870066 -0.767204
000080 0d a1 eb 3d 5c 01 b4 30 36 a8 5d 3d d7 50 c6 b4
       0.115053274 1.309711e-09 0.054115497 -3.6939193e-07
000090 b5 f5 28 bf 91 68 19 34 f1 61 0f 2e 55 b6 4a 3e
       -0.6599992 1.4287276e-07 3.2601425e-11 0.19796117
0000a0 c5 c7 6d 36 3f de f5 3e 66 25 98 31 e4 49 44 be
       3.5432033e-06 0.48021123 4.428034e-09 -0.19168812
0000b0 53 8f 2a 30 17 12 bb 28 f5 d8 cc 3e 19 89 b9 a8
       6.2049316e-10 2.0769016e-14 0.40009275 -2.0598583e-14
0000c0 6b 3c 49 3b 5e 93 1c b6 f8 e3 8f 3a 23 98 c9 3e
       0.0030706178 -2.333159e-06 0.0010977974 0.39373884
0000d0 f8 c1 32 bf 5c bf 70 b3 1e fa 53 3f 6c ec c5 3b
       -0.6982722 -5.6053395e-08 0.82803524 0.0060401466
0000e0 50 de f8 b6 81 b7 e6 32 5d c6 83 34 68 95 45 3e
       -7.4168565e-06 2.6858972e-08 2.454498e-07 0.19295275
0000f0 41 c9 ad 25 8a 8f 5b 37 a7 c2 ce 3e 72 84 f0 3e
       3.014709e-16 1.30868375e-05 0.40382883 0.46976048
000100 8c 3c 1c 3f 31 30 0a 3d 8d 4b 5a 3e 53 62 a4 3e
       0.6102989 0.033737365 0.21317883 0.32106265
000110 6f 5a 8a b7 e4 f2 be b8 b1 4e 3e 3e 5f 7d 7b 3f
       -1.6492993e-05 -9.105148e-05 0.18584706 0.98238176
000120 32 37 1f 3e e6 62 f9 b6 80 44 95 b0 58 f5 99 3c
       0.15548399 -7.4322916e-06 -1.0860646e-09 0.018793747
000130 40 01 2f a9 b5 fa 6f ac d0 a2 f0 29 3a f2 94 3e
       -3.885889e-14 -3.4103113e-12 1.06863845e-13 0.29091054
000140 f3 f1 33 bf 1a e6 e3 3e 4a 41 65 33 5e 07 b4 2f
       -0.7029106 0.4451149 5.3377597e-08 3.2747044e-10
000150 e1 f3 47 bf 8c e3 0c 38 28 0d 4c a8 da ba 09 33
       -0.78106505 3.359052e-05 -1.1327128e-14 3.206774e-08
000160 1b af f3 39 61 4d 3f bf d7 33 a9 bc 49 cc 31 30
       0.00046479036 -0.74727446 -0.020654602 6.468253e-10
000170 98 b6 1f 36 93 c8 24 b0 68 ee 80 37 2e d3 88 3f
       2.379913e-06 -5.9947886e-10 1.5369806e-05 1.0689447
000180 f0 de c8 be 40 86 0a bf 52 32 72 b5 ae 55 c1 b4
       -0.39232588 -0.541111 -9.022525e-07 -3.6011392e-07
000190 f9 b2 15 bf 7e 3a 08 be 5d 3c 5a bc 2e 50 df b6
       -0.58476216 -0.13303563 -0.013320056 -6.655252e-06
0001a0 14 81 32 3a 6b 35 a8 3e b0 c3 fa bd 9e 82 de 35
       0.0006809395 0.32853255 -0.12244356 1.6578304e-06
0001b0 a8 cc e2 be cd e3 1d bf 83 42 c2 be c4 3a ad b2
       -0.44296765 -0.6167572 -0.3794137 -2.0166574e-08
0001c0 94 f1 a3 b5 3c 48 38 32 83 25 64 b6 7b 81 2f 34
       -1.2214755e-06 1.0726634e-08 -3.3996482e-06 1.634525e-07
0001d0 82 88 54 be 0b de 96 b4 20 b0 f7 32 22 51 77 a9
       -0.20755199 -2.8101235e-07 2.8834677e-08 -5.491539e-14
0001e0 6a 9b 48 be 0d 6c d2 3e b2 34 d3 3b d0 20 51 b3
       -0.19590536 0.4109806 0.0064454908 -4.8691447e-08
0001f0 d5 09 e5 be 66 66 39 36 1b 8f b3 3e 5c 2d 1b b5
       -0.44734064 2.7626752e-06 0.35070118 -5.7808006e-07
000200 2b 6c 9a 2e 3e 0f 84 be 19 2c c1 38 1f 52 65 bf
       7.022324e-11 -0.2579288 9.211171e-05 -0.8957843
000210 18 77 17 31 ea ca 4d be b8 36 6d b0 25 fb aa a7
       2.204109e-09 -0.20096937 -8.629786e-10 -4.745677e-15
000220 87 06 00 bf 7c 90 94 a9 33 76 0a bb 56 f5 f7 36
       -0.5000996 -6.5975843e-14 -0.002112758 7.3897345e-06
000230 64 93 6f b9 dd 5c a5 bd 80 c4 cd 3e 95 08 f1 31
       -0.00022847723 -0.08074353 0.4018898 7.014999e-09
000240 98 53 85 3f 02 44 ab 3b 8a f5 1c b7 20 b1 41 b6
       1.0416136 0.005226613 -9.355494e-06 -2.8862341e-06
000250 43 7f 09 33 94 75 bb be 38 9f 96 25 8c b0 16 b5
       3.2013542e-08 -0.36613142 2.6128743e-16 -5.6136264e-07
000260 66 41 35 3f 39 8b 07 be be 1b 0e bd e7 62 bc be
       0.70802915 -0.13236703 -0.034694426 -0.36794207
000270 98 b1 85 be 74 f2 20 bf 79 0f 5b 39 15 4a 79 37
       -0.26112056 -0.62869954 0.00020891232 1.4858805e-05
000280 74 c6 fd be 64 18 f9 bd 52 01 37 bd 42 20 a1 36
       -0.4956547 -0.12162855 -0.044678994 4.801929e-06
000290 93 94 91 35 b4 c7 e8 bb 9a 47 20 aa 34 09 ff ad
       1.0846583e-06 -0.0071038846 -1.4235696e-13 -2.899423e-11
0002a0 0a f6 aa a7 28 6f c8 be f3 af a1 3e 95 69 a6 be
       -4.7451235e-15 -0.39147305 0.3157955 -0.32502428
0002b0 e2 b8 89 b3 4e 3a 87 30 92 c6 0b be 52 38 c7 38
       -6.4131896e-08 9.839114e-10 -0.13649967 9.49955e-05
0002c0 33 32 44 2b 8a 4a 13 b2 76 8e 63 be cf 93 a3 3e
       6.9702854e-13 -8.573474e-09 -0.22222313 0.31948707
0002d0 74 cf 07 3c 74 46 17 b1 8f f2 ae b6 43 0c 9b b0
       0.008289207 -2.201344e-09 -5.2138416e-06 -1.1281219e-09
0002e0 30 c9 59 35 bf 59 f4 bf bd 48 6b 3e 79 6a 34 3d
       8.1131566e-07 -1.9089888 0.22976966 0.044046853
0002f0 98 9e 34 b5 da b1 6b ae 3c 85 92 3e c3 e9 e1 be
       -6.728601e-07 -5.3590778e-11 0.28617275 -0.4412366
000300 13 79 11 3d fa 21 6b b5 b4 b0 24 3a 27 ba 77 3e
       0.035515856 -8.7593764e-07 0.00062824343 0.24192105
000310 9e b7 3d 3d 3d 7b b3 b7 22 d7 c2 bc c5 87 a0 3e
       0.04631769 -2.139585e-05 -0.023784224 0.31353584
000320 ff 0b f2 3d 86 96 6f b3 84 42 7b 34 b4 47 7c b2
       0.11818694 -5.5783424e-08 2.3400395e-07 -1.4684634e-08
000330 58 36 aa 34 88 ab 21 b3 56 36 b7 3e 17 2f 50 2a
       3.1704508e-07 -3.764174e-08 0.35783643 1.8490449e-13
000340 15 5a 06 b2 02 b1 dd a6 2b 61 c4 3e f3 de 94 3e
       -7.820309e-09 -1.5382934e-15 0.38355383 0.29076347
000350 35 3a e0 bd 1a 2f 99 b2 f9 8a a4 3e a4 ae 7a b6
       -0.10948602 -1.7832964e-08 0.32137278 -3.7354557e-06
000360 62 18 aa 3e cc 36 a8 b4 a1 4d c8 ad 9f 54 7f 3d
       0.33221728 -3.1332308e-07 -2.2771842e-11 0.06233656
000370 aa 55 c5 b7 7b 23 9d 3e 40 c3 d7 b1 c2 cd ae 3e
       -2.352412e-05 0.30691132 -6.279521e-09 0.34141356
000380 96 9f 05 30 70 cc 8c a8 58 68 b3 3d 29 07 38 a9
       4.8611903e-10 -1.5631783e-14 0.08760136 -4.0862418e-14
000390 f8 26 59 3a 6d 88 09 32 f5 fc 2f ba 56 b1 9a be
       0.00082837 8.005469e-09 -0.0006713414 -0.30213422
0003a0 c5 b9 99 3e d4 f3 5f 33 0a de e6 bf e2 38 e9 bb
       0.30024543 5.2142994e-08 -1.8036511 -0.0071173767
0003b0 c7 6c fa b5 84 fa 3d 31 38 c2 4d aa 17 e9 cf 3d
       -1.865811e-06 2.7645521e-09 -1.8275041e-13 0.1015188
0003c0 42 66 90 a5 18 d7 92 b5 1b d9 8b bf 15 51 a6 be
       -2.504931e-16 -1.0940448e-06 -1.092563 -0.32483736
0003d0 26 50 0f bf 4d 91 80 3e f3 e4 61 3d 2e 91 83 3e
       -0.5598167 0.25110856 0.055149984 0.256967
0003e0 7e 63 8d 38 cb 10 b4 3a f0 cf 60 3e 47 1c 56 bf
       6.741936e-05 0.0013737915 0.21954322 -0.836369
0003f0 98 0c 07 be 09 c6 44 36 48 9c 17 b3 d0 b6 c4 bb
       -0.13188398 2.9321548e-06 -3.5299564e-08 -0.0060032383

fc3.bias f4 [3]
000000 e8 32 c5 bd 54 80 a4 3c 41 f9 ab 3d
       -0.0962885 0.020080723 0.08397151
